Model: "functional"
┏━━━━━━━━━━━━━━━━━━━━━┳━━━━━━━━━━━━━━━━━━━┳━━━━━━━━━━━━┳━━━━━━━━━━━━━━━━━━━┓
┃ Layer (type)        ┃ Output Shape      ┃    Param # ┃ Connected to      ┃
┡━━━━━━━━━━━━━━━━━━━━━╇━━━━━━━━━━━━━━━━━━━╇━━━━━━━━━━━━╇━━━━━━━━━━━━━━━━━━━┩
│ seq_input           │ (None, 20, 4)     │          0 │ -                 │
│ (InputLayer)        │                   │            │                   │
├─────────────────────┼───────────────────┼────────────┼───────────────────┤
│ dense (Dense)       │ (None, 20, 16)    │         64 │ seq_input[0][0]   │
├─────────────────────┼───────────────────┼────────────┼───────────────────┤
│ add_pos (Lambda)    │ (None, 20, 16)    │          0 │ dense[0][0]       │
├─────────────────────┼───────────────────┼────────────┼───────────────────┤
│ self_attn           │ (None, 20, 16)    │      1,088 │ add_pos[0][0],    │
│ (MultiHeadAttentio… │                   │            │ add_pos[0][0]     │
├─────────────────────┼───────────────────┼────────────┼───────────────────┤
│ attn_res (Add)      │ (None, 20, 16)    │          0 │ add_pos[0][0],    │
│                     │                   │            │ self_attn[0][0]   │
├─────────────────────┼───────────────────┼────────────┼───────────────────┤
│ attn_ln             │ (None, 20, 16)    │         32 │ attn_res[0][0]    │
│ (LayerNormalizatio… │                   │            │                   │
├─────────────────────┼───────────────────┼────────────┼───────────────────┤
│ bidirectional       │ (None, 20, 128)   │     41,472 │ attn_ln[0][0]     │
│ (Bidirectional)     │                   │            │                   │
├─────────────────────┼───────────────────┼────────────┼───────────────────┤
│ batch_normalization │ (None, 20, 128)   │        512 │ bidirectional[0]… │
│ (BatchNormalizatio… │                   │            │                   │
├─────────────────────┼───────────────────┼────────────┼───────────────────┤
│ dropout_1 (Dropout) │ (None, 20, 128)   │          0 │ batch_normalizat… │
├─────────────────────┼───────────────────┼────────────┼───────────────────┤
│ bidirectional_1     │ (None, 20, 256)   │    263,168 │ dropout_1[0][0]   │
│ (Bidirectional)     │                   │            │                   │
├─────────────────────┼───────────────────┼────────────┼───────────────────┤
│ num_input           │ (None, 5)         │          0 │ -                 │
│ (InputLayer)        │                   │            │                   │
├─────────────────────┼───────────────────┼────────────┼───────────────────┤
│ global_max_pooling… │ (None, 256)       │          0 │ bidirectional_1[… │
│ (GlobalMaxPooling1… │                   │            │                   │
├─────────────────────┼───────────────────┼────────────┼───────────────────┤
│ dense_1 (Dense)     │ (None, 64)        │        384 │ num_input[0][0]   │
├─────────────────────┼───────────────────┼────────────┼───────────────────┤
│ batch_normalizatio… │ (None, 256)       │      1,024 │ global_max_pooli… │
│ (BatchNormalizatio… │                   │            │                   │
├─────────────────────┼───────────────────┼────────────┼───────────────────┤
│ batch_normalizatio… │ (None, 64)        │        256 │ dense_1[0][0]     │
│ (BatchNormalizatio… │                   │            │                   │
├─────────────────────┼───────────────────┼────────────┼───────────────────┤
│ concatenate         │ (None, 320)       │          0 │ batch_normalizat… │
│ (Concatenate)       │                   │            │ batch_normalizat… │
├─────────────────────┼───────────────────┼────────────┼───────────────────┤
│ dense_2 (Dense)     │ (None, 128)       │     41,088 │ concatenate[0][0] │
├─────────────────────┼───────────────────┼────────────┼───────────────────┤
│ dropout_2 (Dropout) │ (None, 128)       │          0 │ dense_2[0][0]     │
├─────────────────────┼───────────────────┼────────────┼───────────────────┤
│ dense_3 (Dense)     │ (None, 64)        │      8,256 │ dropout_2[0][0]   │
├─────────────────────┼───────────────────┼────────────┼───────────────────┤
│ dense_4 (Dense)     │ (None, 64)        │      4,160 │ dense_3[0][0]     │
├─────────────────────┼───────────────────┼────────────┼───────────────────┤
│ dense_5 (Dense)     │ (None, 1)         │         65 │ dense_4[0][0]     │
└─────────────────────┴───────────────────┴────────────┴───────────────────┘
 Total params: 1,082,917 (4.13 MB)
 Trainable params: 360,673 (1.38 MB)
 Non-trainable params: 896 (3.50 KB)
 Optimizer params: 721,348 (2.75 MB)

