Model: "functional_1"
┏━━━━━━━━━━━━━━━━━━━━━┳━━━━━━━━━━━━━━━━━━━┳━━━━━━━━━━━━┳━━━━━━━━━━━━━━━━━━━┓
┃ Layer (type)        ┃ Output Shape      ┃    Param # ┃ Connected to      ┃
┡━━━━━━━━━━━━━━━━━━━━━╇━━━━━━━━━━━━━━━━━━━╇━━━━━━━━━━━━╇━━━━━━━━━━━━━━━━━━━┩
│ seq_input           │ (None, 20, 4)     │          0 │ -                 │
│ (InputLayer)        │                   │            │                   │
├─────────────────────┼───────────────────┼────────────┼───────────────────┤
│ dense_6 (Dense)     │ (None, 20, 16)    │         64 │ seq_input[0][0]   │
├─────────────────────┼───────────────────┼────────────┼───────────────────┤
│ add_pos (Lambda)    │ (None, 20, 16)    │          0 │ dense_6[0][0]     │
├─────────────────────┼───────────────────┼────────────┼───────────────────┤
│ self_attn           │ (None, 20, 16)    │      1,088 │ add_pos[0][0],    │
│ (MultiHeadAttentio… │                   │            │ add_pos[0][0]     │
├─────────────────────┼───────────────────┼────────────┼───────────────────┤
│ attn_res (Add)      │ (None, 20, 16)    │          0 │ add_pos[0][0],    │
│                     │                   │            │ self_attn[0][0]   │
├─────────────────────┼───────────────────┼────────────┼───────────────────┤
│ attn_ln             │ (None, 20, 16)    │         32 │ attn_res[0][0]    │
│ (LayerNormalizatio… │                   │            │                   │
├─────────────────────┼───────────────────┼────────────┼───────────────────┤
│ bidirectional_2     │ (None, 20, 128)   │     41,472 │ attn_ln[0][0]     │
│ (Bidirectional)     │                   │            │                   │
├─────────────────────┼───────────────────┼────────────┼───────────────────┤
│ batch_normalizatio… │ (None, 20, 128)   │        512 │ bidirectional_2[… │
│ (BatchNormalizatio… │                   │            │                   │
├─────────────────────┼───────────────────┼────────────┼───────────────────┤
│ dropout_4 (Dropout) │ (None, 20, 128)   │          0 │ batch_normalizat… │
├─────────────────────┼───────────────────┼────────────┼───────────────────┤
│ bidirectional_3     │ (None, 20, 256)   │    263,168 │ dropout_4[0][0]   │
│ (Bidirectional)     │                   │            │                   │
├─────────────────────┼───────────────────┼────────────┼───────────────────┤
│ num_input           │ (None, 6)         │          0 │ -                 │
│ (InputLayer)        │                   │            │                   │
├─────────────────────┼───────────────────┼────────────┼───────────────────┤
│ global_max_pooling… │ (None, 256)       │          0 │ bidirectional_3[… │
│ (GlobalMaxPooling1… │                   │            │                   │
├─────────────────────┼───────────────────┼────────────┼───────────────────┤
│ dense_7 (Dense)     │ (None, 64)        │        448 │ num_input[0][0]   │
├─────────────────────┼───────────────────┼────────────┼───────────────────┤
│ batch_normalizatio… │ (None, 256)       │      1,024 │ global_max_pooli… │
│ (BatchNormalizatio… │                   │            │                   │
├─────────────────────┼───────────────────┼────────────┼───────────────────┤
│ batch_normalizatio… │ (None, 64)        │        256 │ dense_7[0][0]     │
│ (BatchNormalizatio… │                   │            │                   │
├─────────────────────┼───────────────────┼────────────┼───────────────────┤
│ concatenate_1       │ (None, 320)       │          0 │ batch_normalizat… │
│ (Concatenate)       │                   │            │ batch_normalizat… │
├─────────────────────┼───────────────────┼────────────┼───────────────────┤
│ dense_8 (Dense)     │ (None, 128)       │     41,088 │ concatenate_1[0]… │
├─────────────────────┼───────────────────┼────────────┼───────────────────┤
│ dropout_5 (Dropout) │ (None, 128)       │          0 │ dense_8[0][0]     │
├─────────────────────┼───────────────────┼────────────┼───────────────────┤
│ dense_9 (Dense)     │ (None, 64)        │      8,256 │ dropout_5[0][0]   │
├─────────────────────┼───────────────────┼────────────┼───────────────────┤
│ dense_10 (Dense)    │ (None, 64)        │      4,160 │ dense_9[0][0]     │
├─────────────────────┼───────────────────┼────────────┼───────────────────┤
│ dense_11 (Dense)    │ (None, 1)         │         65 │ dense_10[0][0]    │
└─────────────────────┴───────────────────┴────────────┴───────────────────┘
 Total params: 1,083,109 (4.13 MB)
 Trainable params: 360,737 (1.38 MB)
 Non-trainable params: 896 (3.50 KB)
 Optimizer params: 721,476 (2.75 MB)

