Model: "functional_1"
┏━━━━━━━━━━━━━━━━━━━━━┳━━━━━━━━━━━━━━━━━━━┳━━━━━━━━━━━━┳━━━━━━━━━━━━━━━━━━━┓
┃ Layer (type)        ┃ Output Shape      ┃    Param # ┃ Connected to      ┃
┡━━━━━━━━━━━━━━━━━━━━━╇━━━━━━━━━━━━━━━━━━━╇━━━━━━━━━━━━╇━━━━━━━━━━━━━━━━━━━┩
│ seq_input           │ (None, 64)        │          0 │ -                 │
│ (InputLayer)        │                   │            │                   │
├─────────────────────┼───────────────────┼────────────┼───────────────────┤
│ flatten_1 (Flatten) │ (None, 64)        │          0 │ seq_input[0][0]   │
├─────────────────────┼───────────────────┼────────────┼───────────────────┤
│ dense_8 (Dense)     │ (None, 256)       │     16,640 │ flatten_1[0][0]   │
├─────────────────────┼───────────────────┼────────────┼───────────────────┤
│ leaky_re_lu_3       │ (None, 256)       │          0 │ dense_8[0][0]     │
│ (LeakyReLU)         │                   │            │                   │
├─────────────────────┼───────────────────┼────────────┼───────────────────┤
│ batch_normalizatio… │ (None, 256)       │      1,024 │ leaky_re_lu_3[0]… │
│ (BatchNormalizatio… │                   │            │                   │
├─────────────────────┼───────────────────┼────────────┼───────────────────┤
│ dropout_3 (Dropout) │ (None, 256)       │          0 │ batch_normalizat… │
├─────────────────────┼───────────────────┼────────────┼───────────────────┤
│ dense_9 (Dense)     │ (None, 128)       │     32,896 │ dropout_3[0][0]   │
├─────────────────────┼───────────────────┼────────────┼───────────────────┤
│ leaky_re_lu_4       │ (None, 128)       │          0 │ dense_9[0][0]     │
│ (LeakyReLU)         │                   │            │                   │
├─────────────────────┼───────────────────┼────────────┼───────────────────┤
│ batch_normalizatio… │ (None, 128)       │        512 │ leaky_re_lu_4[0]… │
│ (BatchNormalizatio… │                   │            │                   │
├─────────────────────┼───────────────────┼────────────┼───────────────────┤
│ dropout_4 (Dropout) │ (None, 128)       │          0 │ batch_normalizat… │
├─────────────────────┼───────────────────┼────────────┼───────────────────┤
│ dense_10 (Dense)    │ (None, 64)        │      8,256 │ dropout_4[0][0]   │
├─────────────────────┼───────────────────┼────────────┼───────────────────┤
│ num_input           │ (None, 6)         │          0 │ -                 │
│ (InputLayer)        │                   │            │                   │
├─────────────────────┼───────────────────┼────────────┼───────────────────┤
│ leaky_re_lu_5       │ (None, 64)        │          0 │ dense_10[0][0]    │
│ (LeakyReLU)         │                   │            │                   │
├─────────────────────┼───────────────────┼────────────┼───────────────────┤
│ dense_11 (Dense)    │ (None, 64)        │        448 │ num_input[0][0]   │
├─────────────────────┼───────────────────┼────────────┼───────────────────┤
│ batch_normalizatio… │ (None, 64)        │        256 │ leaky_re_lu_5[0]… │
│ (BatchNormalizatio… │                   │            │                   │
├─────────────────────┼───────────────────┼────────────┼───────────────────┤
│ batch_normalizatio… │ (None, 64)        │        256 │ dense_11[0][0]    │
│ (BatchNormalizatio… │                   │            │                   │
├─────────────────────┼───────────────────┼────────────┼───────────────────┤
│ concatenate_1       │ (None, 128)       │          0 │ batch_normalizat… │
│ (Concatenate)       │                   │            │ batch_normalizat… │
├─────────────────────┼───────────────────┼────────────┼───────────────────┤
│ dense_12 (Dense)    │ (None, 128)       │     16,512 │ concatenate_1[0]… │
├─────────────────────┼───────────────────┼────────────┼───────────────────┤
│ dropout_5 (Dropout) │ (None, 128)       │          0 │ dense_12[0][0]    │
├─────────────────────┼───────────────────┼────────────┼───────────────────┤
│ dense_13 (Dense)    │ (None, 64)        │      8,256 │ dropout_5[0][0]   │
├─────────────────────┼───────────────────┼────────────┼───────────────────┤
│ dense_14 (Dense)    │ (None, 64)        │      4,160 │ dense_13[0][0]    │
├─────────────────────┼───────────────────┼────────────┼───────────────────┤
│ dense_15 (Dense)    │ (None, 1)         │         65 │ dense_14[0][0]    │
└─────────────────────┴───────────────────┴────────────┴───────────────────┘
 Total params: 265,797 (1.01 MB)
 Trainable params: 88,257 (344.75 KB)
 Non-trainable params: 1,024 (4.00 KB)
 Optimizer params: 176,516 (689.52 KB)

