Model: "functional_1"
┏━━━━━━━━━━━━━━━━━━━━━┳━━━━━━━━━━━━━━━━━━━┳━━━━━━━━━━━━┳━━━━━━━━━━━━━━━━━━━┓
┃ Layer (type)        ┃ Output Shape      ┃    Param # ┃ Connected to      ┃
┡━━━━━━━━━━━━━━━━━━━━━╇━━━━━━━━━━━━━━━━━━━╇━━━━━━━━━━━━╇━━━━━━━━━━━━━━━━━━━┩
│ seq_input           │ (None, 20, 4)     │          0 │ -                 │
│ (InputLayer)        │                   │            │                   │
├─────────────────────┼───────────────────┼────────────┼───────────────────┤
│ dense_6 (Dense)     │ (None, 20, 16)    │         64 │ seq_input[0][0]   │
├─────────────────────┼───────────────────┼────────────┼───────────────────┤
│ add_pos (Lambda)    │ (None, 20, 16)    │          0 │ dense_6[0][0]     │
├─────────────────────┼───────────────────┼────────────┼───────────────────┤
│ self_attn           │ (None, 20, 16)    │      1,088 │ add_pos[0][0],    │
│ (MultiHeadAttentio… │                   │            │ add_pos[0][0]     │
├─────────────────────┼───────────────────┼────────────┼───────────────────┤
│ attn_res (Add)      │ (None, 20, 16)    │          0 │ add_pos[0][0],    │
│                     │                   │            │ self_attn[0][0]   │
├─────────────────────┼───────────────────┼────────────┼───────────────────┤
│ attn_ln             │ (None, 20, 16)    │         32 │ attn_res[0][0]    │
│ (LayerNormalizatio… │                   │            │                   │
├─────────────────────┼───────────────────┼────────────┼───────────────────┤
│ conv1d_3 (Conv1D)   │ (None, 20, 64)    │      3,136 │ attn_ln[0][0]     │
├─────────────────────┼───────────────────┼────────────┼───────────────────┤
│ max_pooling1d_3     │ (None, 10, 64)    │          0 │ conv1d_3[0][0]    │
│ (MaxPooling1D)      │                   │            │                   │
├─────────────────────┼───────────────────┼────────────┼───────────────────┤
│ batch_normalizatio… │ (None, 10, 64)    │        256 │ max_pooling1d_3[… │
│ (BatchNormalizatio… │                   │            │                   │
├─────────────────────┼───────────────────┼────────────┼───────────────────┤
│ conv1d_4 (Conv1D)   │ (None, 10, 128)   │     24,704 │ batch_normalizat… │
├─────────────────────┼───────────────────┼────────────┼───────────────────┤
│ max_pooling1d_4     │ (None, 5, 128)    │          0 │ conv1d_4[0][0]    │
│ (MaxPooling1D)      │                   │            │                   │
├─────────────────────┼───────────────────┼────────────┼───────────────────┤
│ batch_normalizatio… │ (None, 5, 128)    │        512 │ max_pooling1d_4[… │
│ (BatchNormalizatio… │                   │            │                   │
├─────────────────────┼───────────────────┼────────────┼───────────────────┤
│ conv1d_5 (Conv1D)   │ (None, 5, 128)    │     49,280 │ batch_normalizat… │
├─────────────────────┼───────────────────┼────────────┼───────────────────┤
│ max_pooling1d_5     │ (None, 2, 128)    │          0 │ conv1d_5[0][0]    │
│ (MaxPooling1D)      │                   │            │                   │
├─────────────────────┼───────────────────┼────────────┼───────────────────┤
│ num_input           │ (None, 6)         │          0 │ -                 │
│ (InputLayer)        │                   │            │                   │
├─────────────────────┼───────────────────┼────────────┼───────────────────┤
│ batch_normalizatio… │ (None, 2, 128)    │        512 │ max_pooling1d_5[… │
│ (BatchNormalizatio… │                   │            │                   │
├─────────────────────┼───────────────────┼────────────┼───────────────────┤
│ dense_7 (Dense)     │ (None, 64)        │        448 │ num_input[0][0]   │
├─────────────────────┼───────────────────┼────────────┼───────────────────┤
│ global_max_pooling… │ (None, 128)       │          0 │ batch_normalizat… │
│ (GlobalMaxPooling1… │                   │            │                   │
├─────────────────────┼───────────────────┼────────────┼───────────────────┤
│ batch_normalizatio… │ (None, 64)        │        256 │ dense_7[0][0]     │
│ (BatchNormalizatio… │                   │            │                   │
├─────────────────────┼───────────────────┼────────────┼───────────────────┤
│ concatenate_1       │ (None, 192)       │          0 │ global_max_pooli… │
│ (Concatenate)       │                   │            │ batch_normalizat… │
├─────────────────────┼───────────────────┼────────────┼───────────────────┤
│ dense_8 (Dense)     │ (None, 128)       │     24,704 │ concatenate_1[0]… │
├─────────────────────┼───────────────────┼────────────┼───────────────────┤
│ dropout_3 (Dropout) │ (None, 128)       │          0 │ dense_8[0][0]     │
├─────────────────────┼───────────────────┼────────────┼───────────────────┤
│ dense_9 (Dense)     │ (None, 64)        │      8,256 │ dropout_3[0][0]   │
├─────────────────────┼───────────────────┼────────────┼───────────────────┤
│ dense_10 (Dense)    │ (None, 64)        │      4,160 │ dense_9[0][0]     │
├─────────────────────┼───────────────────┼────────────┼───────────────────┤
│ dense_11 (Dense)    │ (None, 1)         │         65 │ dense_10[0][0]    │
└─────────────────────┴───────────────────┴────────────┴───────────────────┘
 Total params: 350,885 (1.34 MB)
 Trainable params: 116,705 (455.88 KB)
 Non-trainable params: 768 (3.00 KB)
 Optimizer params: 233,412 (911.77 KB)

