Model: "functional"
┏━━━━━━━━━━━━━━━━━━━━━┳━━━━━━━━━━━━━━━━━━━┳━━━━━━━━━━━━┳━━━━━━━━━━━━━━━━━━━┓
┃ Layer (type)        ┃ Output Shape      ┃    Param # ┃ Connected to      ┃
┡━━━━━━━━━━━━━━━━━━━━━╇━━━━━━━━━━━━━━━━━━━╇━━━━━━━━━━━━╇━━━━━━━━━━━━━━━━━━━┩
│ seq_input           │ (None, 20, 4)     │          0 │ -                 │
│ (InputLayer)        │                   │            │                   │
├─────────────────────┼───────────────────┼────────────┼───────────────────┤
│ flatten (Flatten)   │ (None, 80)        │          0 │ seq_input[0][0]   │
├─────────────────────┼───────────────────┼────────────┼───────────────────┤
│ dense (Dense)       │ (None, 256)       │     20,736 │ flatten[0][0]     │
├─────────────────────┼───────────────────┼────────────┼───────────────────┤
│ leaky_re_lu         │ (None, 256)       │          0 │ dense[0][0]       │
│ (LeakyReLU)         │                   │            │                   │
├─────────────────────┼───────────────────┼────────────┼───────────────────┤
│ batch_normalization │ (None, 256)       │      1,024 │ leaky_re_lu[0][0] │
│ (BatchNormalizatio… │                   │            │                   │
├─────────────────────┼───────────────────┼────────────┼───────────────────┤
│ dropout (Dropout)   │ (None, 256)       │          0 │ batch_normalizat… │
├─────────────────────┼───────────────────┼────────────┼───────────────────┤
│ dense_1 (Dense)     │ (None, 128)       │     32,896 │ dropout[0][0]     │
├─────────────────────┼───────────────────┼────────────┼───────────────────┤
│ leaky_re_lu_1       │ (None, 128)       │          0 │ dense_1[0][0]     │
│ (LeakyReLU)         │                   │            │                   │
├─────────────────────┼───────────────────┼────────────┼───────────────────┤
│ batch_normalizatio… │ (None, 128)       │        512 │ leaky_re_lu_1[0]… │
│ (BatchNormalizatio… │                   │            │                   │
├─────────────────────┼───────────────────┼────────────┼───────────────────┤
│ dropout_1 (Dropout) │ (None, 128)       │          0 │ batch_normalizat… │
├─────────────────────┼───────────────────┼────────────┼───────────────────┤
│ dense_2 (Dense)     │ (None, 64)        │      8,256 │ dropout_1[0][0]   │
├─────────────────────┼───────────────────┼────────────┼───────────────────┤
│ num_input           │ (None, 6)         │          0 │ -                 │
│ (InputLayer)        │                   │            │                   │
├─────────────────────┼───────────────────┼────────────┼───────────────────┤
│ leaky_re_lu_2       │ (None, 64)        │          0 │ dense_2[0][0]     │
│ (LeakyReLU)         │                   │            │                   │
├─────────────────────┼───────────────────┼────────────┼───────────────────┤
│ dense_3 (Dense)     │ (None, 64)        │        448 │ num_input[0][0]   │
├─────────────────────┼───────────────────┼────────────┼───────────────────┤
│ batch_normalizatio… │ (None, 64)        │        256 │ leaky_re_lu_2[0]… │
│ (BatchNormalizatio… │                   │            │                   │
├─────────────────────┼───────────────────┼────────────┼───────────────────┤
│ batch_normalizatio… │ (None, 64)        │        256 │ dense_3[0][0]     │
│ (BatchNormalizatio… │                   │            │                   │
├─────────────────────┼───────────────────┼────────────┼───────────────────┤
│ concatenate         │ (None, 128)       │          0 │ batch_normalizat… │
│ (Concatenate)       │                   │            │ batch_normalizat… │
├─────────────────────┼───────────────────┼────────────┼───────────────────┤
│ dense_4 (Dense)     │ (None, 128)       │     16,512 │ concatenate[0][0] │
├─────────────────────┼───────────────────┼────────────┼───────────────────┤
│ dropout_2 (Dropout) │ (None, 128)       │          0 │ dense_4[0][0]     │
├─────────────────────┼───────────────────┼────────────┼───────────────────┤
│ dense_5 (Dense)     │ (None, 64)        │      8,256 │ dropout_2[0][0]   │
├─────────────────────┼───────────────────┼────────────┼───────────────────┤
│ dense_6 (Dense)     │ (None, 64)        │      4,160 │ dense_5[0][0]     │
├─────────────────────┼───────────────────┼────────────┼───────────────────┤
│ dense_7 (Dense)     │ (None, 1)         │         65 │ dense_6[0][0]     │
└─────────────────────┴───────────────────┴────────────┴───────────────────┘
 Total params: 278,085 (1.06 MB)
 Trainable params: 92,353 (360.75 KB)
 Non-trainable params: 1,024 (4.00 KB)
 Optimizer params: 184,708 (721.52 KB)

